sine_model.tflite (tflite, 2960 bytes, 5 tensors)

sequential/dense/BiasAdd/ReadVariableOp/resource f4 [16]
00000000: d6e2 1cbf 0000 0000 0000 0000 0000 0000
00000010: 0000 0000 0000 0000 0000 0000 e29d 89bc
00000020: 661b 23bf 0000 0000 c915 833e c85f f33e
00000030: 1f9c b0be a06d 30bf 0000 0000 b093 223f
-0.61283624 0.0 0.0 0.0 0.0 0.0 0.0 -0.016798917
-0.6371368 0.0 0.25602558 0.47534013 -0.3449411 -0.68917274 0.0 0.63506603

sequential/dense_1/BiasAdd/ReadVariableOp/resource f4 [16]
00000000: eac3 12be 377d 32be 87ab 5a3e f132 21be
00000010: 0000 0000 46eb 9e3b 0a87 e6bd 90e0 ebbd
00000020: 0000 0000 b48b ac3e 3ca0 2bbe cd46 21bf
00000030: 0000 0000 cbc3 00be d7e5 fbbd 4b30 4fbb
-0.14332548 -0.17430578 0.21354495 -0.15742089 0.0 0.004849824 -0.112562254 -0.11517441
0.0 0.33700335 -0.16760343 -0.6299866 0.0 -0.12574689 -0.12299698 -0.0031614478

sequential/dense/MatMul f4 [16, 1]
00000000: cced 253f 8b58 92be 4626 10bf e281 a3be
00000010: 507a 4bbe ae83 d3be f27b f1be 5255 b73e
00000020: 99c5 6b3e a056 77be ebd0 cf3e 55a6 e43e
00000030: a7ae 3b3e b402 933e 5605 c6be eed0 f43d
0.64815974 -0.28583178 -0.563084 -0.3193503 -0.19870877 -0.413114 -0.47164875 0.35807282
0.23024596 -0.24154139 0.4058908 0.4465815 0.18328343 0.28713 -0.38675946 0.11953913

sequential/dense_1/MatMul f4 [16, 16]
00000000: dfa6 ba3e fc10 983d 6a3e a2be 2cb2 a1bd
00000010: 6893 a7be 1a15 d0be 6c8c aebe 7d9e c53e
00000020: 263a aebe 6604 043e 74ef c1be cc25 953e
00000030: 5a61 b0bd 2941 92be 3b24 ce3e fde4 ea3d
00000040: ade4 9f3e 7af8 8ebe 000e a13a 3050 19be
00000050: dc77 af3d 5216 383e be7b 18be 187a 30be
00000060: bc20 b93e 683c 3dbe 7f09 f0bd 0258 d63e
00000070: 7acf 2bbd 6ccc 983d 01e7 a4be 7223 abbe
00000080: 34ab d3be 083d 48bd c7fe cd3e 0819 0c3d
00000090: caf3 5dbe 4f0c d6be a2b7 2cbe c737 d33e
000000a0: fa2e 3dbf 5108 c9be 45d3 b0bd 09fc c03e
000000b0: 15e5 88bf e7f7 47bf 30c3 08be aaae 8b3e
000000c0: 541b 34be 002e e1bd f4d4 da3d 5fec b3be
000000d0: e036 a1bd 0ffd cb3e 117a 66be 4e56 873e
000000e0: 69a8 c53e 349f 1abe e9ae bc3d 24b9 983e
000000f0: ae95 08bf ba6f 493d c406 3abe 0ef4 223c
00000100: 304d 0a3d bcc9 e1bd 2c4d 993d 1980 b93e
00000110: 802f 423b afff 973e 5ed7 7c3e b2fd 0e3e
00000120: 9e32 453e 666a 5f3e ccd9 8dbd ac25 20be
00000130: b61e 413e d8a9 31be 5507 ccbe 70bf ba3c
00000140: 1740 56bd 88a5 5cbd 2609 773e c26a 03be
00000150: 67cc a23e e5c7 acbe 2110 8f3e 10fa 8bbe
00000160: 8874 c7be f085 923c 9d80 d1be 595d 163d
00000170: 4702 b53e 7e65 7e3e 84a4 61be 475f 57be
00000180: d483 d13e f673 723e 005c 543d 4ade 4bbe
00000190: ba11 bdbe 88b2 afbe da15 96be e6d8 633d
000001a0: da9b 973e 9db5 8f3e 4ca5 95be fe76 8b3d
000001b0: fd4c 7a3d 1f0f c63e 40d6 83bd e1fe bc3d
000001c0: 275d f13e f1dd 98be 80bc b23b 4e38 393e
000001d0: 9d53 c0be 0c65 bebd 4e9c 91be 6fa6 973e
000001e0: 45db d1be a96d b0be eb14 1e3e 1249 b3be
000001f0: 71cd c2bd f5c2 48be e432 86be 53d1 51bb
00000200: d497 cdbe 7a20 29be e087 1dbd 18e2 f3bd
00000210: 30dd f4bd 4400 ea3d b83c 85be ea70 563e
00000220: cbff d33e 6756 d83e 0036 713d 0e21 70be
00000230: d090 863d f563 a33e 40fa 50bc 0f8c 80be
00000240: 059c 06bd a059 a03c b836 a4bd 4da3 843e
00000250: 9758 863e 783c c8bd 60ca 86be 02d1 5fbf
00000260: c0c4 523d da29 81be 8672 a8bc dafd 55be
00000270: 2c48 fe3c 6189 b4be d198 58be 1d94 a43e
00000280: f0fb bb3e a8fc 843d 8ae2 303e 584f 16bd
00000290: 8ee6 493e aa5d 273e 0d1c cf3e 219f 8cbe
000002a0: 1de8 07be 4345 a03e 6707 223e 6b8a 19bd
000002b0: fac0 8dbe e070 9a3d 402d d2bb e22a 573e
000002c0: e3b4 053f cf71 903e 4849 9fbe bc2e 8b3d
000002d0: 0b2c a0be e6bd 95be b0e4 c1bc 9eb2 843e
000002e0: d2bf 453f 3c1f b9bd 86ee edbd 6f1f e2be
000002f0: 33ef 513e 2586 dc3e a0f7 fbbd e5e7 e9be
00000300: 1ca9 9fbe 7987 68be 0764 aebe 56d7 6f3e
00000310: 09e5 6ebe 378d bdbe e8b3 adbd 5edc 453e
00000320: 880c 043d b63b 083e 2e4a b8be 0746 b3be
00000330: 10f6 50bd 19dd 55be 9644 80be 38ab 14bd
00000340: 0a79 913e 3727 ab3e 0b60 933e af39 bd3e
00000350: 3f7d bc3e c020 2abd db79 9e3e 5d56 bc3e
00000360: a3f9 cc3e 7c42 21be 8cd9 4fbd cb4b ad3e
00000370: 3694 96be 31ef 86be 000c 443a a837 89be
00000380: cc73 bb3e 0ddd ccbe 0032 cebb 9200 8cbe
00000390: 0840 d2be 12cb 9cbe 7ca1 ba3d 6f8d 81bd
000003a0: 91ca 783e 56fd 173e 29e7 3b3e cd19 91be
000003b0: 51cb d8be e889 083e a41d 1fbe c96c bfbd
000003c0: 1a83 1fbe 1acd 3b3e 604d a6bd f62d 9dbe
000003d0: fa59 21be a06e 7cbe a0de a9bc 1b5f 9c3e
000003e0: b061 353d 9a1e 243e a407 a5be bd08 2cbe
000003f0: 4731 6b3e 84f9 843d 4bb0 823e e209 273e
0.36455438 0.074251145 -0.31688243 -0.07895312 -0.3272965 -0.406411 -0.34091508 0.3859748
-0.3402874 0.12892303 -0.37878 0.291304 -0.08612318 -0.28565338 0.40262017 0.11469457
0.31229153 -0.27923948 0.0012287498 -0.14971995 0.08567783 0.17977265 -0.14890954 -0.17234075
0.36157787 -0.18480074 -0.11720561 0.4186402 -0.041945912 0.074608654 -0.32207492 -0.3342548
-0.41341555 -0.04888633 0.40233442 0.03420356 -0.2167503 -0.41806266 -0.16866925 0.41253492
-0.73899806 -0.39264157 -0.086340465 0.37692288 -1.069491 -0.78112644 -0.13355708 0.27281696
-0.1758855 -0.10995102 0.10685149 -0.35141274 -0.07871795 0.39841506 -0.22507502 0.26433033
0.3860505 -0.15099794 0.09213049 0.2982875 -0.53353393 0.049178816 -0.18166643 0.0099458825
0.033765018 -0.11024806 0.074854225 0.36230543 0.0029630363 0.2968726 0.24691531 0.13963965
0.1925759 0.21817932 -0.06926307 -0.1563937 0.18859372 -0.17349946 -0.39849344 0.022796363
-0.052307215 -0.0538688 0.24124584 -0.12833694 0.31796572 -0.33746257 0.27941993 -0.2733922
-0.38956094 0.017886132 -0.40918437 0.036710117 0.353533 0.24843404 -0.22035414 -0.21032439
0.4092089 0.23677048 0.05184555 -0.19909015 -0.36927587 -0.34315896 -0.29313546 0.055626772
0.29611093 0.28068247 -0.29227674 0.06809805 0.061108578 0.3868341 -0.06437349 0.09228302
0.47141382 -0.29856828 0.0054546 0.18087885 -0.37563792 -0.09296617 -0.28439564 0.29619166
-0.40987602 -0.34458664 0.15437667 -0.35016686 -0.09511841 -0.1960562 -0.262107 -0.0032015636
-0.40154898 -0.16516295 -0.03845966 -0.11908358 -0.11956251 0.11425832 -0.26022887 0.20941511
0.41406092 0.4225342 0.05888939 -0.2345011 0.065705895 0.319122 -0.012754977 -0.25106856
-0.032863636 0.019573987 -0.08018249 0.2590584 0.26239464 -0.097771585 -0.26326275 -0.87428296
0.051457167 -0.25227243 -0.020562422 -0.20897618 0.031040274 -0.35261062 -0.21152045 0.3214425
0.3671565 0.06493503 0.17273918 -0.03669676 0.19716856 0.16344324 0.4045109 -0.27465156
-0.13272138 0.31302842 0.15823136 -0.03748552 -0.27686292 0.075410604 -0.0064140856 0.21012452
0.52229136 0.2821183 -0.31110597 0.06796023 -0.31283602 -0.29246444 -0.023668617 0.25917524
0.7724582 -0.090391606 -0.1161776 -0.44164607 0.20501404 0.43071094 -0.1230309 -0.45684734
-0.31183708 -0.22707929 -0.3406069 0.23421988 -0.23329557 -0.370218 -0.0848158 0.19322345
0.032238513 0.13304028 -0.35994095 -0.35014364 -0.051015913 -0.20885123 -0.25052327 -0.0362961
0.28412658 0.33428356 0.28784212 0.36958072 0.36814305 -0.04153514 0.30952343 0.3678464
0.40034208 -0.15748018 -0.05074458 0.33846888 -0.2940995 -0.26354364 0.0007478595 -0.26800275
0.36611784 -0.40012398 -0.0062925816 -0.27344185 -0.41064477 -0.3062368 0.09112832 -0.063258044
0.24296023 0.14842734 0.183499 -0.28339997 -0.42342618 0.13333857 -0.15538651 -0.09346921
-0.15577355 0.18339959 -0.08120227 -0.30699128 -0.1575698 -0.24651575 -0.020736039 0.3054131
0.044282615 0.16027299 -0.32232392 -0.16800208 0.22968017 0.06492904 0.25525126 0.16312364

sequential/dense_2/MatMul f4 [1, 16]
00000000: e73e efbd 2ec5 6cbe ba1e a43f bccb 933e
00000010: a83b ea3e 53a7 ccbe a0c4 eebe 52a0 ecbe
00000020: 9234 74be 840a 91bf 57fa c33d 864a 0640
00000030: c479 eebe 1436 27bd bbd8 503e 0179 f03d
-0.116819195 -0.23122093 1.2821877 0.28866374 0.4574864 -0.39971408 -0.46634388 -0.46216065
-0.23848179 -1.1331334 0.09569233 2.0982985 -0.46577275 -0.040823057 0.20395176 0.1174183
